pytorch/慕课-利用神经网络解决分类和回归问题/波士顿房价问题/model/model.pkl (torch, 10003 bytes, 3 tensors)

weight f4 [128, 13]
000000 88 f5 85 3d 35 63 a2 be 3a e5 6a be de de 71 bf
       0.06540972 -0.31716314 -0.22939005 -0.94480693
000010 3d 9a f2 be 24 b1 06 3f ad 30 a3 be a4 45 9c be
       -0.473833 0.52614045 -0.31873074 -0.30521882
000020 06 a2 83 3e 78 35 4e 3e 27 47 3b 3e 7d 65 c6 bd
       0.25709552 0.20137584 0.18288861 -0.09687326
000030 d1 21 8e be e3 61 e2 bd 8a 21 5a 3b d1 1a 95 be
       -0.27760175 -0.11053827 0.003328415 -0.29122022
000040 8d c1 63 3c c5 f2 d8 bd 18 22 b1 3d 18 1a 0c bd
       0.013901127 -0.105931796 0.08649081 -0.034204572
000050 1f 21 61 be f5 a2 72 be c6 9f af 3d 7c 77 10 bd
       -0.21985291 -0.23694976 0.08575396 -0.0352702
000060 6f ec eb bd af dd 04 3e 37 cf 31 bc 93 e4 1f 3e
       -0.115197055 0.1297519 -0.0108526265 0.15614538
000070 95 d3 98 3d b2 78 ec 3e 74 94 53 be 66 7b 11 3f
       0.07462231 0.46185833 -0.20662099 0.56828916
000080 60 7f 63 3e 14 6c 66 3b 8a 00 80 bd 06 90 55 3e
       0.22216558 0.0035159634 -0.06250103 0.20855722
000090 ac 0d 79 be fe f7 5e 3e 73 bf 94 bd 7c 95 b4 be
       -0.24321622 0.21774289 -0.072630785 -0.35270298
0000a0 a3 50 14 3e bd fa 83 3e bf c8 86 3e ef f8 88 be
       0.14483885 0.25777236 0.26325032 -0.2675242
0000b0 db f5 92 3f 69 53 20 3b e8 72 88 bf 94 8e 6b 3d
       1.1481279 0.0024463779 -1.0660067 0.05750902
0000c0 04 5b 85 3d 51 60 8a be 52 63 bd bc ad bc e2 bf
       0.065115005 -0.2702661 -0.023118649 -1.7713829
0000d0 62 97 7f be bc 00 04 be f6 b2 46 3d 50 a7 e0 bd
       -0.24960092 -0.12890905 0.048510514 -0.10969412
0000e0 b4 fa 3a 3d 6a 2c 0e 3e 7b 2d 23 be 1c d8 27 3e
       0.045649245 0.1388413 -0.15935318 0.16391033
0000f0 ac e4 3a be 0d 24 f6 bc 53 7e 28 3e 2b dc 81 be
       -0.18251294 -0.030046487 0.16454439 -0.25363287
000100 6c 64 29 3d 52 ab b1 bd 09 27 3d 3e 66 47 35 3e
       0.041355535 -0.08675255 0.18471922 0.17703018
000110 d7 2e 25 be 2a ce 9e 3e 1d bb 4d 3c ad 8d a7 3d
       -0.16131149 0.31016666 0.012556818 0.081813194
000120 e0 3e 61 3e 06 f8 da be 82 28 50 3e f0 76 1f 3b
       0.21996641 -0.42767352 0.20327953 0.0024332367
000130 a7 ad c5 be 6a be 42 be 2d a1 5c 3e 3b 58 3f 3e
       -0.3860905 -0.1901795 0.21545859 0.18686001
000140 75 6d 41 be 99 71 e7 be 41 3f 26 3e 16 a2 6f be
       -0.18889411 -0.45203856 0.16235067 -0.23401675
000150 34 0b f5 bd 72 1e 6b 3e 62 cf 88 be 8c 35 34 be
       -0.119650275 0.22960833 -0.2672072 -0.17598552
000160 32 41 55 bd 80 b7 47 3e 34 45 21 3e a0 92 87 3d
       -0.05206413 0.19503593 0.15749055 0.066197634
000170 0f bd 74 be 60 94 40 3d 90 2e 8b 3c fc 4d de bd
       -0.23900245 0.0470165 0.016989976 -0.10854718
000180 5c 5d 31 be d1 4b 13 be e6 71 5d be c0 6b 96 bb
       -0.1732077 -0.1438439 -0.2162548 -0.0045904815
000190 00 73 91 bc 7c 63 58 be e8 8f 83 bd 28 39 b6 3d
       -0.017755032 -0.211317 -0.06423932 0.088976204
0001a0 5a 24 4c 3e d2 35 6d bd 9b 60 21 be c9 ad 2c be
       0.19935742 -0.057912655 -0.15759508 -0.16863169
0001b0 9f 9c f3 be 01 22 42 40 c3 13 85 3d 82 9f ad bf
       -0.4758043 3.0333254 0.0649791 -1.3564303
0001c0 96 9e e0 3e 4c 06 0a ba 09 98 50 bf bd 46 21 3d
       0.4387099 -0.00052652205 -0.8148199 0.039374102
0001d0 e6 c8 0e c0 00 f0 8e ba a4 96 ab 3d 0e ef 15 3e
       -2.2310119 -0.0010905266 0.08378342 0.14641973
0001e0 14 41 c0 3d ea 0e 7f be c0 a7 f0 bb f0 95 55 3e
       0.09387413 -0.24908033 -0.007344216 0.20857978
0001f0 4c 2d 47 3e f8 3b 85 be 23 f8 82 be 11 51 8d 3e
       0.19450873 -0.26022315 -0.25579938 0.2760091
000200 88 08 44 bd 06 25 ea bd 49 61 8a be 22 f4 a8 be
       -0.0478597 -0.11432843 -0.27027348 -0.3299876
000210 ec df 82 be 26 89 0d bf 7d 61 51 bc e5 b7 38 bf
       -0.25561464 -0.55287397 -0.012779591 -0.721556
000220 cc 26 db 3c 21 64 e8 bd dd 95 7d be 44 35 b2 3d
       0.026751898 -0.11347223 -0.247642 0.08701566
000230 f3 8d bc 3d 03 92 0f 3e 66 32 13 3e 34 dc 51 3e
       0.09206762 0.14020543 0.14374694 0.20494157
000240 70 d6 9c bc f1 5f 41 be 00 58 92 3d 28 73 e5 bc
       -0.01914522 -0.18884255 0.07145691 -0.028009012
000250 bf 5c 81 be 5a 8a 58 3e 39 fa 0b be 50 d8 3f 3e
       -0.25266072 0.21146527 -0.13669671 0.1873486
000260 8e 35 d4 bd dc 85 ab 3d 10 97 2b bd 1f e5 15 be
       -0.10361777 0.08375141 -0.04189211 -0.14638184
000270 d8 d0 51 3d 94 65 02 bd d2 c6 3d be e2 f8 5a 3e
       0.05122456 -0.031835154 -0.18532875 0.21384004
000280 62 4a 6d 3e 22 22 64 3e 04 8e a9 3d 96 47 07 3e
       0.23172906 0.22278646 0.082790405 0.13210902
000290 59 6f 89 3e c2 70 85 bd 40 60 9f 3c c3 41 47 be
       0.26842764 -0.065156475 0.019455075 -0.1945868
0002a0 e2 24 35 be 80 3c a4 bc db 26 9f bb 56 ad 62 3e
       -0.17689851 -0.02004838 -0.004856927 0.22136435
0002b0 88 83 1d bf 1a f9 13 3d 11 60 2b bf 24 03 94 be
       -0.61528826 0.036126234 -0.6694346 -0.28908646
0002c0 e8 39 c3 bd 81 15 8b be 52 fe 49 3b 84 c1 f0 3d
       -0.09532529 -0.27164844 0.0030821753 0.1175566
0002d0 ec 74 18 3e 22 a9 fc bc b9 a0 9b 3d b2 cb 85 3d
       0.14888352 -0.030842368 0.07599015 0.065329924
0002e0 fc 98 00 be 4f d2 0f 3f cd 04 33 be e1 23 4a 3f
       -0.12558359 0.5618028 -0.174823 0.78960997
0002f0 37 12 a6 be d9 cb 18 be 2b 24 0a be 11 d5 1a be
       -0.32435772 -0.14921512 -0.1349036 -0.15120341
000300 9e 77 b6 be 73 ca 60 3e 46 51 bb 3e 5d 07 33 3e
       -0.35638136 0.21952228 0.36585444 0.17483278
000310 7e cc 16 3d bd 3a 84 be 52 2b 4b 3f 73 3b 6d be
       0.036816113 -0.25826064 0.79362977 -0.2316721
000320 cf 62 7d be 7b d0 d7 3c 37 c0 e7 3b 77 a5 c6 3d
       -0.24744724 0.026344528 0.0070724743 0.09699529
000330 30 f7 49 3e b8 34 92 be 29 5d 7a be 68 a3 3b 3d
       0.19723201 -0.28555846 -0.244496 0.045810133
000340 58 ee d6 3c e1 4a 85 3e 0e f8 f1 3d e7 6c 0e 3e
       0.026236698 0.2603369 0.11814891 0.1390873
000350 49 af 8b be 5d b5 47 3e 3e eb 83 be 1e 10 9a be
       -0.2728217 0.19502778 -0.25765413 -0.3009042
000360 16 b0 59 bb 2f de 64 3c 80 d7 61 be 86 90 a4 be
       -0.0033216528 0.013968988 -0.22054863 -0.32141513
000370 03 ee 21 3e b0 1c 2c 3e d8 e4 7f be f4 93 f5 bd
       0.1581345 0.16807818 -0.2498964 -0.119911104
000380 ce e5 d1 bd a0 b6 59 3c 62 22 68 3e df 60 8a 3e
       -0.1024891 0.01328817 0.22669366 0.27027032
000390 90 0d 9a bc b0 7e 6d 3d d6 91 18 be 96 d9 81 bd
       -0.018805295 0.057982147 -0.14899382 -0.06340329
0003a0 98 e7 4e bd 64 59 f3 3d 16 21 73 3e de 08 72 3e
       -0.050513834 0.11882284 0.2374309 0.23636195
0003b0 d6 5b 5d be 48 65 6f 3d 3c 73 d0 bd 82 e8 0e 3e
       -0.21617064 0.0584462 -0.10178229 0.13955882
0003c0 89 16 49 be 24 b4 6e be 58 48 e0 3d 5c 53 0c bd
       -0.19637503 -0.23310906 0.109512985 -0.034259185
0003d0 12 e8 a3 bd 20 6a 55 bd c3 1c 84 3e e5 ae a0 3d
       -0.08003248 -0.05210316 0.25803193 0.078458585
0003e0 44 a6 63 bd d9 7a 02 be 72 2b c6 3f c8 54 5c bf
       -0.055578485 -0.12742175 1.5482008 -0.86066866
0003f0 78 b8 ae bf 6f 06 55 3f 9c 77 b6 bf ed cd 31 3e
       -1.3650045 0.8321294 -1.4255252 0.1736371

bias f4 [128]
000000 81 e9 01 3f 7e 56 7c be 44 97 d4 bd cd e3 5d 3e
       0.50746924 -0.24642369 -0.10380414 0.2166893
000010 6c 70 3e 3e 25 72 79 3c ed f5 59 be 4e 92 5f 3e
       0.18597573 0.015224968 -0.2128522 0.21833155
000020 9b bc af 3e da 92 09 be 82 fc 35 be 94 49 97 3d
       0.34323582 -0.13434926 -0.17772105 0.07387081
000030 e3 63 60 be 9e 78 c2 be 63 91 bc bd 79 6a 75 be
       -0.21913104 -0.3798265 -0.09207418 -0.23966397
000040 e7 b8 64 be d0 f2 a7 bd ba d5 03 be 0b 4c 43 3f
       -0.2233616 -0.0820061 -0.12874499 0.7628791
000050 1f 92 91 3d ee 55 ba be 76 31 1d be 2f 23 1d be
       0.071079485 -0.36393684 -0.15350899 -0.15345453
000060 de ed 1c 3e 10 66 dd bd 0b c1 7b be 4b ac 81 bd
       0.15325114 -0.108104825 -0.24585359 -0.063316904
000070 58 52 1c be d4 91 11 bd 31 ea 0b be ca c4 a1 3e
       -0.15265787 -0.035539463 -0.13663556 0.3159545
000080 74 70 bd 3e 6b b1 fc 3d 45 3f 9d bd f5 e1 e7 3d
       0.36999857 0.12338527 -0.07678083 0.11322395
000090 f9 e2 51 3e 15 e5 c6 bd b8 29 e8 bd 51 89 2a bd
       0.2049674 -0.09711663 -0.11336082 -0.04163486
0000a0 1e 3a 3a 3d 51 2c 99 3e 0f 97 37 be c3 4b 83 3e
       0.04546558 0.29916623 -0.17928718 0.2564374
0000b0 ba e0 e4 3d d0 3b c5 3d c4 e4 eb bd d3 b7 59 be
       0.11175676 0.09630549 -0.11518243 -0.2126153
0000c0 94 1e 00 3e 75 25 fa bc 4c e2 81 be 98 57 57 be
       0.12511665 -0.030535439 -0.25367963 -0.21029508
0000d0 26 24 36 3e 5a 96 b3 be 5b 1e 22 3d 6f 90 19 3e
       0.17787227 -0.35075647 0.03957973 0.14996503
0000e0 a7 e8 7f be dc 18 81 3d 44 71 43 bd 7e 86 90 3c
       -0.24991094 0.0630357 -0.04771544 0.017642256
0000f0 a3 c8 4c 3e bc 1f 86 3d cb e4 1f be 1c 32 8a 3d
       0.19998412 0.065490216 -0.15614621 0.06747839
000100 d7 1b 61 be d0 b5 e1 bc 1e f9 57 3e af 00 36 3e
       -0.21983276 -0.027552515 0.21091124 0.17773698
000110 20 27 50 be 5d b2 4a be 44 85 4b be ce 11 e3 3e
       -0.20327425 -0.19794603 -0.19875056 0.4434952
000120 b5 4a 3e be 25 1a b7 bd 68 8f 00 be 12 3a 28 3d
       -0.18583186 -0.089405335 -0.12554705 0.041071005
000130 eb 60 c5 be 96 28 39 bd 54 0c b3 3e cc ac 92 bd
       -0.38550505 -0.04520472 0.34970343 -0.07161865
000140 e5 64 8c 3e 0e 00 3f 3e f0 e2 34 be e6 b9 20 3e
       0.27420726 0.18652365 -0.17664695 0.15695915
000150 56 ef ab 3e 90 d5 fd 3c 60 a8 58 be b5 e2 8d be
       0.33581036 0.030985624 -0.2115798 -0.27712026
000160 6c b9 0c bd 41 b2 88 3e 48 84 41 3e a4 df e4 3d
       -0.03435652 0.26698497 0.18898118 0.111754686
000170 98 cf 2a 3e 90 89 06 be 2a cd 5d be 2d 2f 49 3e
       0.16680753 -0.13138413 -0.21660295 0.19646902
000180 53 73 62 be d4 93 8a 3e a6 09 6b be 40 6a 8a bd
       -0.22114305 0.2706591 -0.229529 -0.06758547
000190 c8 55 da bd 64 dd 32 3e 89 5a 7a be 27 55 db 3d
       -0.10660893 0.17467266 -0.24448599 0.10709601
0001a0 7e 00 81 bb d0 6b 85 bc 81 2e 5a be 90 f2 b8 be
       -0.0039368263 -0.01628676 -0.21306802 -0.3612256
0001b0 47 1f c5 3e 5d ab 72 3e 0e 3a 8b be 12 70 2b 3e
       0.38500425 0.23698182 -0.2719273 0.1674197
0001c0 59 e5 31 be 07 9f 21 be fa d2 b0 be 9c 03 1f 3e
       -0.17372645 -0.1578332 -0.34535962 0.1552872
0001d0 96 dd 82 3e fe 84 b3 be 5e e4 8b be 8d df 04 be
       0.25559682 -0.35062402 -0.27322668 -0.12975903
0001e0 14 2a 3c 3e e5 bb cf bc 7c 1e e8 3d a4 cb 2e 3e
       0.18375427 -0.02535815 0.113339394 0.1706987
0001f0 24 c7 65 bd ab 56 b8 3c 5d 67 d8 bd 6d 16 26 be
       -0.05609812 0.022502264 -0.1056659 -0.16219492

weight f4 [1, 128]
000000 2a 98 cb 3c 6c c8 58 bc 9a 98 83 3d aa ca d0 3d
       0.02485283 -0.013231378 0.06425591 0.10194905
000010 69 f6 a1 3c 0b 96 8a bd eb c3 41 bd 4e f9 80 bd
       0.019770818 -0.067669 -0.047305983 -0.06297551
000020 d7 82 39 3f 20 b3 96 3c 92 b6 80 bc fc eb 88 bd
       0.7246527 0.01839596 -0.015712056 -0.066856354
000030 1d 0e 8f bd d4 c3 c4 bd 0b d3 5c 3d 90 eb b1 bb
       -0.06985114 -0.09607664 0.053912204 -0.0054296926
000040 ab 7f 60 ba 40 b7 4d bb 5e 56 4b 3d ff 57 86 3e
       -0.0008563946 -0.0031389743 0.049642913 0.2623901
000050 52 39 a5 3c f7 1e b9 bd 48 d7 88 3c d5 96 52 bd
       0.020168934 -0.09039109 0.016704217 -0.051413376
000060 5d 9b 09 bc ab 51 86 bc 47 bf f9 3c da 5a 16 3c
       -0.008398858 -0.016396364 0.030486716 0.009176934
000070 4b 7d 8e bd 0d 58 8f 3d 0d 7a 8d 3d 08 ad 3e 3e
       -0.069574915 0.06999216 0.06908045 0.18620694
000080 02 ad 97 3d 43 2d 2b bd eb 83 a2 bd ca 8c 43 3c
       0.074060455 -0.04179121 -0.079353176 0.011935422
000090 2d 97 1c 3e 11 eb 79 3d a0 e8 2d bc 67 5c 99 3d
       0.15292044 0.061015192 -0.010614544 0.074883275
0000a0 58 0d f4 3b 1f 56 23 3e 46 80 d5 3b 82 5a e7 bc
       0.0074478798 0.15950821 0.0065155355 -0.0282414
0000b0 b3 ee f2 bc 29 47 7b bd 6b 9b 45 3d 1e 58 ed 3c
       -0.029654836 -0.06134716 0.04824392 0.028972682
0000c0 5c 2f 8e 3c 8c 28 d4 3b 93 e4 3d bd 0a 6e 4e 3d
       0.017356567 0.00647456 -0.046360563 0.05039791
0000d0 6a 53 b2 bd 27 30 31 bd 22 57 0c 3e 76 76 a7 bc
       -0.08707316 -0.043258812 0.13705114 -0.020442229
0000e0 c3 9d 3a 3d 20 74 63 3d 20 82 8b bd ee 88 98 bd
       0.04556061 0.055530667 -0.06811929 -0.07447992
0000f0 9c d9 4f 3c 68 7f d0 3c 2e 8f 6a 3d 77 7b 58 bc
       0.012686159 0.025451377 0.057265453 -0.01321303
000100 6c bd 81 bc 8d 0b a4 3d 56 22 3e 3d 39 38 4a 3d
       -0.015837394 0.08010016 0.046419464 0.049370024
000110 94 21 2a bd 81 be e1 bc 0f ea 9c 3d 2b fb 92 3d
       -0.04153593 -0.02755666 0.07661831 0.07176813
000120 c0 61 10 3d ba cd 98 3d 3e fd 8f bd c7 bf eb 3d
       0.03524947 0.07461114 -0.07030724 0.11511188
000130 a5 fa 71 bd 95 28 90 bd ce 01 9f 3d 05 b2 e3 bc
       -0.059076924 -0.070389904 0.07764016 -0.027794847
000140 ee 7a 08 3d 89 93 9a 3d 1a 77 9c bd 9a 71 50 3d
       0.03332036 0.07547671 -0.07639904 0.05088959
000150 9e b4 2f 3e 01 f1 a5 bd 29 b3 99 bd f0 73 61 3d
       0.17158744 -0.081026085 -0.07504875 0.055042207
000160 9a 27 0f 3d b0 65 b4 bb fa 92 24 3d 96 68 08 3d
       0.034949876 -0.005505286 0.04017923 0.033302866
000170 00 a6 14 3d c1 5f 4e bd a1 ac 98 bd 9c a1 34 3d
       0.036291122 -0.050384287 -0.07454801 0.044099435
000180 19 d8 16 bd 39 7d 7f 3d 00 cb 6e 3a 8e ac 55 3d
       -0.03682718 0.06237528 0.0009109229 0.052166514
000190 3e 8f ae 3c f6 3e 03 bd d4 95 97 bd 04 f7 f9 bc
       0.021308538 -0.032042466 -0.07401624 -0.030513294
0001a0 ec 97 54 3c e6 b9 4c 3d a1 88 7a bd 99 72 98 bd
       0.012975674 0.049981974 -0.061165456 -0.07443733
0001b0 20 8e 8a 3d 00 e0 50 39 51 8a b0 3d bc d8 15 3c
       0.067653894 0.00019919872 0.08620132 0.009145912
0001c0 a7 a2 ae bd 20 39 27 bc 34 33 94 bd 1e 27 20 3d
       -0.08527117 -0.010206491 -0.07236329 0.039099805
0001d0 64 6b 2b 3d 96 f7 e7 bc b1 f1 a6 3d ec 24 9a bd
       0.041850463 -0.0283163 0.08151568 -0.075265735
0001e0 bc 7d 44 3d 1d b0 89 3d 62 33 0e bd c0 09 b2 bd
       0.047971472 0.06723044 -0.03471697 -0.08693266
0001f0 ca 51 03 3d 78 70 4c be de 16 81 3d 41 15 18 3d
       0.032060422 -0.19964778 0.0630319 0.037129644
