pytorch/慕课-利用神经网络解决分类和回归问题/识别手写数字问题/model/mnist_model.pkl (torch, 259831 bytes, 8 tensors)

weight f4 [32, 1, 5, 5]
0.030193007 -0.70978504 0.132038 -0.48161826 0.05128363 -1.498295 -0.8311526 0.31132263
0.6052182 1.1010194 -0.7950187 0.9310385 1.518055 0.045715384 -0.39701137 0.73650247
1.1098555 -0.37484998 -1.5475315 -0.8439876 0.8452113 -0.35749862 -0.627174 -0.26934955
-0.39263785 0.18683176 -0.18943197 -0.36490533 -0.7870694 -0.9350189 0.8834082 -0.6171879
-1.3910419 -0.19608189 0.38205034 -0.29311365 -1.1675701 -0.79757565 0.83005863 0.48537862
-0.94006634 -0.34566852 -0.7402205 0.9269588 0.5078894 -0.07277678 -0.34483513 -1.2835141
-1.6077204 -1.238394 -2.1214433 -0.8934557 -0.74070364 -0.11681465 1.2542013 -0.12239788
-0.8717497 -1.882674 -1.788459 -0.23860733 0.4425111 1.0452281 0.24710864 -1.2689644
-1.6619947 0.10254019 -0.14641544 0.5977979 -0.18463957 -1.9046772 0.40972534 0.21870053
0.509894 0.6113095 -0.67990834 -0.7139022 -1.5043858 -0.5209003 -0.13389957 0.024464997
0.852595 0.77780026 0.094524175 0.34133363 -0.039386064 0.4343087 0.81400347 0.14808622
-0.3767848 -0.57041025 -0.8082031 -0.59894294 -0.8037843 -0.9334581 0.06570023 -0.99716514
-1.0439181 -0.9869772 -0.8416747 -0.14970194 0.14531176 0.3167684 -0.080632254 0.38508126
0.99239445 -0.22999178 -0.076508425 0.6505802 0.582322 -0.5029666 0.15466104 0.5935619
-0.0018428207 -0.45312744 -1.7474867 -0.88557124 -0.9153968 -0.9295145 -1.188846 0.12997279
-1.3097135 -1.0709971 -0.7819666 0.09080366 1.1324596 -0.3581918 -0.2428756 -0.42659196
-0.34797162 -0.31891683 -0.29303175 -0.07915253 -0.15749787 -0.46084487 -0.071309164 -0.18021937
-0.23510237 -0.2252666 -0.27479446 0.20812364 -0.4636461 -0.23670575 0.08622328 0.017086484
0.19364844 0.043023854 0.117701605 0.1471188 0.016602498 -0.1312109 -0.68456906 -1.011437
-0.45135832 0.5338569 -0.012135659 -0.97101825 -0.07154041 -0.109406374 0.5681995 0.594567
-1.3446863 -0.47795734 0.08743665 0.4003838 0.34402612 -1.1651946 -1.0099114 -0.460685
-0.021211674 -0.12179054 -1.1290015 -1.1825235 -1.4691087 -1.0181024 -0.68022454 -1.444585
-0.82518065 -1.1026086 -1.2609303 0.05785624 -1.1741663 -0.94823277 -0.92558384 -0.5656281
0.4651091 -1.0418447 -0.61942273 -0.12875926 0.31268376 0.6734183 -0.48878127 -0.74277717
-0.46339986 0.4227276 0.329408 -0.8512476 -0.2211061 0.103073105 0.8550344 0.04931228
0.22645997 -0.2278848 -0.8140139 -0.7233887 -0.49610034 -0.9272299 -1.0405991 -0.6420096
-1.1037832 -1.798645 -1.2128911 -0.6536791 -0.1700235 -0.047420807 0.12412632 0.09031807
0.7435101 0.7925717 1.0621898 0.31646505 0.5377803 -0.15409221 -0.87254786 -0.48898268
0.16061433 -0.4883554 -0.42317432 -0.5165615 -0.8425214 -0.7236097 0.1266722 0.59155196
0.8808556 -0.20780157 0.5028851 -0.5003209 -0.75648034 -0.6776416 -0.52209127 0.90717185
-0.29208896 -0.27520645 -0.447298 -0.41255975 -0.20533556 -0.12659249 -0.30059955 -0.31805953
-0.061342653 -0.57088846 0.4614229 0.34107393 0.24691454 0.79464513 0.776942 0.45348528
00000000: 5357 f73c 79b4 35bf f834 073e ab96 f6be
00000010: c90e 523d 21c8 bfbf 6bc6 54bf ae65 9f3e
00000020: 94ef 1a3f 34ee 8c3f 5886 4bbf 8a58 6e3f
00000030: a04f c23f 0e40 3b3d 1345 cbbe 6d8b 3c3f
00000040: bf0f 8e3f 56ec bfbe 8315 c6bf 920f 58bf
00000050: c55f 583f 0f0a b7be 7a8e 20bf 2fe8 89be
00000060: d407 c9be d350 3f3e 74fa 41be dfd4 babe
00000070: 617d 49bf 665d 6fbf 0a27 623f 0700 1ebf
00000080: a90d b2bf b1c9 48be 1a9c c33e fe12 96be
00000090: f072 95bf eb2d 4cbf b97e 543f 8c83 f83e
000000a0: 30a8 70bf 77fb b0be 177f 3dbf 2c4d 6d3f
000000b0: 0a05 023f fe0b 95bd 3b8e b0be 314a a4bf
000000c0: c8c9 cdbf b283 9ebf bac5 07c0 83b9 64bf
000000d0: c19e 3dbf 853c efbd ab89 a03f bdab fabd
000000e0: fd2a 5fbf 76fb f0bf 39ec e4bf 7b55 74be
000000f0: d190 e23e 09ca 853f 0c0a 7d3e 6d6d a2bf
00000100: 3ebc d4bf 9700 d23d eeed 15be 4809 193f
00000110: 2812 3dbe 76cc f3bf 85c7 d13e 08f3 5f3e
00000120: 6a88 023f c87e 1c3f 790e 2ebf 4bc2 36bf
00000130: b78f c0bf b959 05bf f81c 09be d16a c83c
00000140: aa43 5a3f eb1d 473f e495 c13d 48c3 ae3e
00000150: 4853 21bd b65d de3e 8862 503f eaa3 173e
00000160: f0e9 c0be 6806 12bf 66e6 4ebf 5354 19bf
00000170: cfc4 4dbf 1cf7 6ebf d88d 863d 3746 7fbf
00000180: 1c9f 85bf 8aaa 7cbf fe77 57bf 774b 19be
00000190: 9bcc 143e 782f a23e 8622 a5bd 5f29 c53e
000001a0: 900d 7e3f f782 6bbe 73b0 9cbd 6d8c 263f
000001b0: 0e13 153f 6bc2 00bf 775f 1e3e acf3 173f
000001c0: cd8a f1ba 5200 e8be a5ad dfbf ccb4 62bf
000001d0: 7257 6abf aaf4 6dbf 1b2c 98bf 9617 053e
000001e0: b1a4 a7bf 6f16 89bf f72e 48bf 45f7 b93d
000001f0: 70f4 903f ea64 b7be 62b4 78be 436a dabe
00000200: 5629 b2be 1149 a3be 4208 96be b91a a2bd
00000210: 1f47 21be dcf3 ebbe 8a0a 92bd 6d8b 38be
00000220: adbe 70be 4aac 66be dcb1 8cbe 5d1e 553e
00000230: 0663 edbe fe62 72be d595 b03d f4f8 8b3c
00000240: c74b 463e c839 303d 8a0d f13d 50a6 163e
00000250: f601 883c 265c 06be eb3f 2fbf c576 81bf
00000260: 7018 e7be d9aa 083f a5d4 46bc a794 78bf
00000270: c783 92bd 7310 e0bd 8675 113f 8b35 183f
00000280: ae1e acbf d3b6 f4be fd11 b33d 1bff cc3e
00000290: 3124 b03e 1925 95bf c744 81bf e8de ebbe
000002a0: 1bc4 adbc 526d f9bd 1f83 90bf ee5c 97bf
000002b0: c10b bcbf 2e51 82bf 3223 2ebf 29e8 b8bf
000002c0: 0a3f 53bf 4722 8dbf 2a66 a1bf aafa 6c3d
000002d0: 154b 96bf 62bf 72bf 10f3 6cbf 01cd 10bf
000002e0: c822 ee3e 2b5b 85bf 7d92 1ebf 78d9 03be
000002f0: 1618 a03e 2465 2c3f 8a41 fabe a526 3ebf
00000300: bf42 edbe c16f d83e 2aa8 a83e 5deb 59bf
00000310: a369 62be fe17 d33d 89e3 5a3f acfb 493d
00000320: 1fe5 673e a25a 69be 3763 50bf 0030 39bf
00000330: dd00 febe f05e 6dbf 5a32 85bf be5a 24bf
00000340: c548 8dbf 003a e6bf 0440 9bbf 8357 27bf
00000350: a41a 2ebe 523c 42bd f135 fe3d aef8 b83d
00000360: ae56 3e3f fbe5 4a3f d6f5 873f b507 a23e
00000370: f8ab 093f 59ca 1dbe 4c5f 5fbf f05b fabe
00000380: 1578 243e b809 fabe 4eaa d8be 603d 04bf
00000390: 7caf 57bf 7c3e 39bf 5bb6 013e f36f 173f
000003a0: c17f 613f efc9 54be 14bd 003f 0815 00bf
000003b0: b2a8 41bf eb79 2dbf c6a7 05bf 6a3c 683f
000003c0: af8c 95be dce7 8cbe 3e04 e5be 083b d3be
000003d0: 7c43 52be 76a1 01be 2fe8 99be b3d8 a2be
000003e0: 6f42 7bbd bf25 12bf 9f3f ec3e 3ea1 ae3e
000003f0: 2ad7 7c3e dd6d 4b3f ace5 463f 392f e83e

bias f4 [32]
-0.37581477 0.6025767 2.1244106 0.5859227 -0.6398718 -0.09517526 -0.4548114 -1.1512675
0.93612164 -0.043449458 0.16626152 0.6309272 -0.016408589 1.2862505 -0.6684632 0.5458571
-1.3774834 -1.0152591 -0.23524848 0.7509922 -1.2159082 -0.1936406 0.28707656 0.5133321
-1.576412 -0.01650992 -0.30789605 0.0044186953 -0.14609905 -1.6347505 0.7103652 -0.16966835
00000000: cb6a c0be 7742 1a3f 58f6 0740 08ff 153f
00000010: a3ce 23bf 3feb c2bd 0add e8be bc5c 93bf
00000020: aba5 6f3f 0ff8 31bd 7640 2a3e 7284 213f
00000030: 4e6b 86bc dba3 a43f 6720 2bbf 4abd 0b3f
00000040: 6051 b0bf 03f4 81bf fae4 70be 0641 403f
00000050: e1a2 9bbf b949 46be b3fb 923e bc69 033f
00000060: dec7 c9bf d03f 87bc 8da4 9dbe b4ca 903b
00000070: fd9a 15be 813f d1bf 7eda 353f 8abd 2dbe

weight f4 [32]
0.40539575 1.4348975 0.744801 0.7696797 0.6287837 0.39316761 0.28488842 0.6416618
0.65447366 0.8043913 0.4337761 0.5396706 0.5262756 0.40428573 0.8843328 0.96444196
1.3437209 0.45112887 0.35317117 0.97198 1.2646804 0.42932802 0.66600025 0.6888533
0.43701598 0.6545967 0.6167731 0.26618525 0.7938099 0.79065776 0.39909405 0.8038264
00000000: 0890 cf3e b9aa b73f 47ab 3e3f bb09 453f
00000010: f8f7 203f 444d c93e e5dc 913e f343 243f
00000020: 968b 273f 97ec 4d3f e717 de3e da27 0a3f
00000030: ffb9 063f 8afe ce3e a263 623f abe5 763f
00000040: 0cff ab3f 5dfa e63e dad2 b43e aed3 783f
00000050: 0ce1 a13f e2d0 db3e fe7e 2a3f b158 303f
00000060: 8fc0 df3e a693 273f d8e4 1d3f 6f49 883e
00000070: 2037 4b3f 8c68 4a3f 0e56 cc3e 91c7 4d3f

bias f4 [32]
-0.65933293 -0.7228234 -0.48506603 -0.5089027 -0.7094553 -0.5302853 -0.49560398 -0.49631914
-0.5322879 -0.5191215 -1.3528935 -0.6844008 -0.61594933 -0.3663685 -0.7337525 -0.58261883
-0.83148843 -0.97117186 -0.5677705 -0.6594033 -0.9786243 -0.61526585 -0.62061125 -0.601675
-1.2044462 -0.5814363 -0.6994496 -0.64582086 -0.609309 -0.6228865 -0.659545 -0.4760302
00000000: 0bca 28bf f40a 39bf 935a f8be 7347 02bf
00000010: dd9e 35bf c7c0 07bf cebf fdbe 8b1d febe
00000020: 0544 08bf 26e5 04bf 9d2b adbf e434 2fbf
00000030: dbae 1dbf a794 bbbe 34d7 3bbf 8226 15bf
00000040: 6ddc 54bf b89e 78bf 6859 11bf a8ce 28bf
00000050: 1f87 7abf 1082 1dbf 61e0 1ebf 5f07 1abf
00000060: 4b2b 9abf 02d9 14bf 210f 33bf 8454 25bf
00000070: adfb 1bbf 7d75 1fbf f1d7 28bf 3bba f3be

running_mean f4 [32]
-0.60356575 -0.6126759 0.899451 -0.41042382 -1.3076963 -0.58503115 -1.9041792 -2.4226503
-0.040115546 -0.7980203 0.7502657 -0.52237844 -1.7208029 0.7274637 -1.7689933 -0.35308442
-2.577786 -0.75588745 -0.86276495 -0.3636277 -1.928371 -0.84650713 -0.61378646 -0.7178221
-1.2456536 -0.7736308 -1.4696934 -0.04052518 -1.7568003 -2.8586106 -0.15650709 -1.587357
00000000: 4983 1abf 54d8 1cbf 6c42 663f 1223 d2be
00000010: 9862 a7bf 9ac4 15bf 25bc f3bf b40c 1bc0
00000020: 3350 24bd 0f4b 4cbf 6a11 403f 98ba 05bf
00000030: 4543 dcbf 103b 3a3f 5f6e e2bf 7bc7 b4be
00000040: 72fa 24c0 d781 41bf 2ade 5cbf 692d babe
00000050: dcd4 f6bf b1b4 58bf 1c21 1dbf 30c3 37bf
00000060: 9471 9fbf ab0c 46bf ea1e bcbf bbfd 25bd
00000070: d5de e0bf 7af3 36c0 6543 20be 842e cbbf

running_var f4 [32]
1.1811366 4.686987 5.52421 3.257934 2.9190996 0.8094222 6.9682794 7.306397
3.8492324 1.5645981 1.802888 3.521109 8.409221 2.2626562 3.299507 3.4839404
5.063183 2.3031375 1.4571296 3.4180787 1.5347736 1.463211 3.9087148 5.273542
1.2046863 4.437146 4.678649 0.4840961 8.717032 4.4927907 3.149768 9.192502
00000000: 7c2f 973f ccfb 9540 54c6 b040 fe81 5040
00000010: 87d2 3a40 4b36 4f3f 25fc de40 01ce e940
00000020: d359 7640 c044 c83f 09c5 e63f da59 6140
00000030: 2b8c 0641 5ccf 1040 1f2b 5340 e1f8 5e40
00000040: 9805 a240 9b66 1340 3983 ba3f cdc1 5a40
00000050: 7673 c43f 804a bb3f 6228 7a40 dbc0 a840
00000060: 2933 9a3f 1afd 8d40 7eb7 9540 72db f73e
00000070: f778 0b41 f1c4 8f40 cd95 4940 7d14 1341

weight f4 [10, 6272]
0.06492828 0.057967402 0.0672488 0.0495789 0.11176201 -0.014908653 0.1266375 -0.2364593
-0.43580028 -0.45748323 -0.116355486 -0.043339554 -0.009754442 0.018396828 0.066477224 0.05984314
0.075106755 -0.3087555 -0.81093717 0.32799014 0.05356295 0.009810013 0.013788917 -1.0910795
-0.55398655 0.10127552 0.8042817 -0.16857551 0.054933615 0.018522989 -0.21396127 -0.14184223
-0.363835 -0.8430446 0.10137971 0.28957963 -0.29770488 -0.38811907 -0.14688149 -0.19259956
-0.8168729 -0.087367535 0.044873893 0.11784736 0.17422584 -0.6483119 -0.7220902 -0.13533714
0.09493639 -0.70643246 -0.45819297 0.1724393 -0.41426465 -0.18395711 -0.21416451 -0.2035322
-0.007082051 -0.060639378 -0.3711844 0.30569145 -0.54811597 0.5484073 -0.46145287 -0.10745347
-0.22746581 -0.2362355 0.2504247 0.082189694 -0.09586771 -0.30030385 0.01940883 0.10026298
-0.24549131 -0.079480834 0.49936077 -0.08757304 0.19533251 0.6152956 -0.48145783 -1.3023123
-0.04251793 -0.5369686 -0.41317824 -0.5103081 0.08580782 -0.1931977 0.017277671 1.2390114
0.494088 0.7929546 0.056266174 -0.4202688 -0.61075383 -0.8974431 0.032090466 0.05337193
-0.1607033 -0.17621262 0.07319583 0.053283263 -0.38228464 0.04677396 -0.18364337 0.07350729
-0.5738293 -0.31969053 -0.82219905 0.28679186 0.017235896 0.28666666 -0.11459332 0.07035118
0.084484786 0.23270382 -0.12266254 -0.09020551 0.13668306 0.26065627 -0.07976658 -0.12804827
0.19798587 -0.13183665 0.27346274 -0.20561087 0.14163218 -0.73286533 -0.12594591 -0.38179973
-0.56856316 0.37717924 0.2937841 -0.91084236 0.14427778 1.043769 0.5460797 -0.07497313
0.21167025 -0.29017654 0.16938695 -0.3468508 0.06321846 0.08655977 -0.28370878 0.089748494
0.20124705 0.06334595 0.17410144 -0.22282 -0.09177582 -0.15076801 -0.5251916 0.70217174
0.35437277 0.1849888 -0.014774261 -0.4080217 0.6563479 -0.023949746 -0.13497642 0.24181645
0.11363096 0.35465857 -0.13878682 0.37246463 -0.008098436 0.53301096 0.25533792 -0.02817151
0.052776452 0.26716295 0.83510214 -0.33097443 -0.7588862 -1.481115 -0.797959 -0.15797292
0.08922595 -0.92137253 0.15332417 -0.049656622 0.023230968 0.04962573 0.058164183 0.0346165
-0.17432317 -0.47847202 -0.35988328 -0.6869108 -0.66690326 -0.4720317 -0.39712036 -0.43522918
-0.039212927 -0.006714278 0.054626334 0.060410015 0.1253641 0.12754047 0.11518961 0.12146382
0.11989015 0.15984242 0.15575181 0.23756626 0.21445248 0.16098438 0.12920497 0.13222325
0.11498235 0.1339444 0.19799887 0.2570613 0.16857053 0.5747842 -0.13949709 0.19030206
-0.17145766 -0.0828872 -0.37870207 0.2017738 0.10389096 0.14809859 0.1479775 0.06322675
0.10211116 0.12243475 -0.030132996 -0.26026168 -0.66089237 -0.15665893 0.124806345 0.4711683
-0.8154773 -0.35191038 -0.09683968 -0.095201924 -0.0323857 0.058500983 0.110692 0.22080867
-0.028028749 -0.7432686 -0.9438801 -0.8384072 -0.04492853 -0.34844184 -0.13837735 -0.9320612
-1.0821486 -0.5668285 1.1008481 -0.06372061 0.49003568 0.1765512 -0.115456395 -0.36560556
00000000: 1ef9 843d 3a6f 6d3d bdb9 893d 3f13 4b3d
00000010: 7be3 e43d 6c43 74bc 43ad 013e 6322 72be
00000020: 3721 dfbe 3e3b eabe c94b eebd d184 31bd
00000030: 18d1 1fbc f2b4 963c 3625 883d 151e 753d
00000040: 92d1 993d 3315 9ebe 9499 4fbf 53ee a73e
00000050: d364 5b3d 2dba 203c e9ea 613c 7ea8 8bbf
00000060: 10d2 0dbf 8a69 cf3d 68e5 4d3f 0f9f 2cbe
00000070: 1202 613d 86bd 973c aa18 5bbe 173f 11be
00000080: 9548 babe c5d1 57bf 2aa0 cf3d c843 943e
00000090: c66c 98be 8bb7 c6be 1a68 16be d238 45be
000000a0: 951e 51bf c0ed b2bd b0cd 373d f559 f13d
000000b0: 4268 323e c5f7 25bf e7da 38bf d295 0abe
000000c0: 036e c23d c2d8 34bf 4598 eabe ee93 303e
000000d0: 7f1a d4be 415f 3cbe f14d 5bbe bf6a 50be
000000e0: 8d10 e8bb ff60 78bd e20b bebe 9783 9c3e
000000f0: 5451 0cbf 6c64 0c3f 8d43 ecbe 9110 dcbd
00000100: ccec 68be b8e7 71be ab37 803e 1253 a83d
00000110: 4a56 c4bd 6dc1 99be 44ff 9e3c ad56 cd3d
00000120: 1362 7bbe d9c6 a2bd 37ac ff3e 7e59 b3bd
00000130: 3f05 483e 0384 1d3f a481 f6be 2bb2 a6bf
00000140: 4827 2ebd c676 09bf 198c d3be 8da3 02bf
00000150: 03bc af3d 9ed5 45be e789 8d3c ed97 9e3f
00000160: 1af9 fc3e 13ff 4a3f 5c77 663d 792d d7be
00000170: 5d5a 1cbf d5be 65bf 4b71 033d 869c 5a3d
00000180: 688f 24be 1571 34be b2e7 953d 8d3f 5a3d
00000190: d0ba c3be 0d96 3f3d 020d 3cbe fd8a 963d
000001a0: 7ae6 12bf 7aae a3be a37b 52bf 62d6 923e
000001b0: 4b32 8d3c f9c5 923e e7af eabd 4814 903d
000001c0: 5c06 ad3d e949 6e3e 7f36 fbbd abbd b8bd
000001d0: a5f6 0b3e bd74 853e a95c a3bd 161f 03be
000001e0: cfbc 4a3e 3000 07be 4f03 8c3e a88b 52be
000001f0: 0708 113e 109d 3bbf f7f7 00be 417b c3be
00000200: 5b8d 11bf a31d c13e df6a 963e f72c 69bf
00000210: 8ebd 133e 399a 853f e1cb 0b3f 838b 99bd
00000220: 16c0 583e 0592 94be c673 2d3e 6e96 b1be
00000230: ae78 813d 4046 b13d 4742 91be 0fce b73d
00000240: b513 4e3e 85bb 813d a647 323e ed2a 64be
00000250: f6f4 bbbd ee62 1abe f572 06bf 87c1 333f
00000260: 5970 b53e b46d 3d3e be0f 72bc 38e8 d0be
00000270: 6a06 283f 4232 c4bc 4237 0abe bb9e 773e
00000280: 59b7 e83d cf95 b53e 221e 0ebe afb3 be3e
00000290: 4daf 04bc 6873 083f a7bb 823e f0c7 e6bc
000002a0: 1f2c 583d 95c9 883e 41c9 553f 7b75 a9be
000002b0: 5e46 42bf 2d95 bdbf 0b47 4cbf a7c3 21be
000002c0: 18bc b63d 12df 6bbf 0301 1d3e be64 4bbd
000002d0: df4e be3c 5944 4b3d 913d 6e3d 08ca 0d3d
000002e0: c681 32be 49fa f4be 9f42 b8be 63d9 2fbf
000002f0: 2cba 2abf 24ae f1be 5c53 cbbe 5cd6 debe
00000300: bc9d 20bd 7203 dcbb ddbf 5f3d 7e70 773d
00000310: 725f 003e f899 023e 88e8 eb3d 06c2 f83d
00000320: f888 f53d bbad 233e 677d 1f3e 9244 733e
00000330: 6e99 5b3e 17d9 243e 4f4e 043e 8865 073e
00000340: de7b eb3d b928 093e 37c0 4a3e 8a9d 833e
00000350: c19d 2c3e 0f25 133f 53d8 0ebe 8bde 423e
00000360: 9992 2fbe c4c0 a9bd 3de5 c1be cb9d 4e3e
00000370: c9c4 d43d 28a7 173e 6a87 173e 077d 813d
00000380: a81f d13d 12bf fa3d 79d9 f6bc 0541 85be
00000390: 3e30 29bf 336b 20be 789a ff3d f93c f13e
000003a0: 1fc3 50bf 992d b4be e253 c6bd 3af9 c2bd
000003b0: dea6 04bd ba9e 6f3d 7db2 e23d ab1b 623e
000003c0: 8c9c e5bc da46 3ebf 20a2 71bf dba1 56bf
000003d0: fa06 38bd f866 b2be cbb2 0dbe 909b 6ebf
000003e0: d883 8abf ac1b 11bf 97e8 8c3f f47f 82bd
000003f0: f5e5 fa3e d6c9 343e 6774 ecbd a730 bbbe

bias f4 [10]
0.12791581 0.9706062 0.299839 -0.42784756 0.07107378 0.07687651 -0.047014393 0.21119878
-0.50516206 -0.33936036
00000000: 5dfc 023e a679 783f 7f84 993e d60e dbbe
00000010: 218f 913d 6f71 9d3d 2a92 40bd 7e44 583e
00000020: 4d52 01bf a4c0 adbe
